Assets/TF Models/GuardsManagerBehavior.onnx (onnx, 7484 bytes, 7 tensors)

action_model._continuous_distribution.log_sigma f4 [1, 4]
000000 63 ec 54 bd 94 6b 99 bd 71 b0 48 bd c2 31 94 be
       -0.05198325 -0.07491222 -0.048996393 -0.28944212

action_model._continuous_distribution.mu.bias f4 [4]
000000 26 43 f0 3d 97 ad 70 3c 84 b4 23 3e 61 78 0a 3d
       0.117315575 0.014689825 0.1598683 0.03380621

action_model._continuous_distribution.mu.weight f4 [4, 32]
000000 27 f0 f6 bd a5 8c 1e 3e 42 60 37 be 00 6b da bd
       -0.12057524 0.15483339 -0.17907813 -0.1066494
000010 16 81 18 3e ab c0 3b 3e fb 14 19 3e 6c 65 da 3d
       0.14892992 0.18335216 0.1494941 0.10663876
000020 9e d6 0f be 18 d8 fd bd 91 9a 37 be 08 f4 1a be
       -0.14046714 -0.12394732 -0.17930056 -0.15132153
000030 be 91 0a be 5a b0 17 be d3 05 39 be 21 3f 47 be
       -0.13532159 -0.14813367 -0.18068628 -0.19457676
000040 0d 46 92 3d 2c 0d 48 3e f3 f1 2e 3e e2 a7 ee 3d
       0.071422674 0.19536275 0.17084484 0.11653115
000050 f2 55 e7 3d 9e 53 1b be ce 0c 39 be ba 45 1f be
       0.1129569 -0.15168616 -0.18071291 -0.15553942
000060 3b 53 2f 3e c5 98 c1 bd e6 81 f0 3d 06 3f eb bd
       0.17121594 -0.094529666 0.11743526 -0.1148663
000070 8d 73 b5 3d 53 32 25 3e 8b 07 19 be cc 03 a5 bd
       0.0885993 0.16132478 -0.14944284 -0.08057365
000080 20 94 c0 3c c6 00 64 3a 13 35 bb 38 5f 8e a8 bc
       0.023508132 0.0008697625 8.926741e-05 -0.0205757
000090 72 9b 0c 3c 20 88 1e bc 42 d3 c5 3c 78 51 56 bc
       0.008581983 -0.009676009 0.024148587 -0.013080947
0000a0 d1 be 48 bd c2 06 a1 bd 9e 73 69 bd a0 fd 8a bc
       -0.0490101 -0.07862617 -0.056995027 -0.016966641
0000b0 7e 28 a8 bc 0e 74 b9 bb 0d 60 a8 bd fa 7f 97 3d
       -0.02052712 -0.0056595867 -0.08221445 0.073974565
0000c0 ea b1 86 bd 4e 11 96 bc de 33 d8 3c 9f 95 ae 3c
       -0.06576903 -0.018318798 0.02639192 0.02131158
0000d0 ca 0f 22 3d 69 5c 2d bd 42 14 1a bd 9b 1e 8b 3c
       0.03956584 -0.042324457 -0.037616976 0.016982367
0000e0 df 9d a7 3d da 6d 8d bd bd e3 3b 3d 3d d0 19 bd
       0.081844084 -0.06905718 0.045871485 -0.037552107
0000f0 58 7d 1d 3a ee 20 b2 bd 0e 07 9d b9 d9 f3 8a bc
       0.00060077524 -0.08697687 -0.0002995063 -0.016961979
000100 22 19 8e be ed f8 9c 3e ab f6 97 be 41 90 8a be
       -0.2775355 0.30658665 -0.2968038 -0.27063182
000110 9a 3f 94 3e 35 c7 65 3e 7c 3e 8f 3e 0b 93 9b 3e
       0.28954774 0.22439273 0.2797736 0.30385622
000120 16 9d 9f be b7 7b 89 be a7 3c 95 be 81 5c 9a be
       -0.31174535 -0.268522 -0.29147837 -0.301487
000130 c7 8b a6 be 0f da 90 be c2 5f 4d be fa 1a 82 be
       -0.32528517 -0.28291366 -0.2005606 -0.25411206
000140 ae 5e a0 3e da 96 8e 3e a4 e9 ac 3e 77 f2 8f 3e
       0.31322235 0.27849466 0.33772004 0.28114673
000150 a2 a8 89 3e d2 e1 81 be 8d e3 49 be e0 90 91 be
       0.2688647 -0.253676 -0.1971571 -0.28430843
000160 37 81 93 3e 72 7d 8d be c4 e6 6d 3e 71 3d 97 be
       0.2880952 -0.2763477 0.23232561 -0.29539064
000170 67 46 96 3e 7e 83 82 3e cb 26 94 be 51 f8 8f be
       0.29350588 0.25490946 -0.28935847 -0.28119138
000180 63 92 6a bd b4 b3 a2 3d 3f c4 9d bd 67 3e 21 bd
       -0.05726851 0.07944432 -0.077034466 -0.039366152
000190 a5 bf 77 3c ac fc 79 3d c9 f9 80 3d 2c cb 1e 3d
       0.015121375 0.061031982 0.06297643 0.03876798
0001a0 f8 eb 3b bd 53 11 14 3c 62 16 5c bd bd fe 2d bd
       -0.045879334 0.009037334 -0.053732283 -0.042479265
0001b0 d3 3c a5 bc f4 8f a0 bd fa 1b c2 bc 5a ba ac bc
       -0.020170605 -0.07839957 -0.02369498 -0.021084953
0001c0 59 18 e3 3c 17 c5 4b 3c 91 03 eb 3d 06 9a 0b 3d
       0.02772157 0.012437127 0.114752896 0.034082435
0001d0 bf 28 4e 3c 72 29 86 bd 17 df ed bd 33 5f b4 bd
       0.012582957 -0.06550874 -0.11614817 -0.0880722
0001e0 17 e2 65 3d 05 6a 5f bd a8 7a ac 3c 11 23 2d bd
       0.05612382 -0.054544467 0.02105458 -0.04226977
0001f0 52 0b cc 3c da 46 db 3d 05 2d b4 bd 56 a5 02 bd
       0.024907742 0.10706873 -0.08797649 -0.031895958

network_body.linear_encoder.seq_layers.0.bias f4 [32]
000000 40 e3 8f 3e ea 8c 7d be 92 bb 7b 3e 6b 71 48 3e
       0.28103065 -0.24760786 0.24583271 0.19574516
000010 9a 0e 8e be 2f 46 8c 3e 3f 52 56 3e 1a 16 85 be
       -0.27745515 0.27397296 0.20929812 -0.25993425
000020 60 89 62 be 34 1e 84 3e fa 14 86 be 9e eb 85 3e
       -0.22122717 0.25804293 -0.2618788 0.26156324
000030 1b 96 8e be ca 6e 8e 3e 54 53 81 be 76 7e 88 be
       -0.27848896 0.278189 -0.25258887 -0.26658982
000040 85 a7 8a 3e 05 c2 85 be 26 36 86 be be f1 7d be
       0.27080932 -0.26124588 -0.26213187 -0.24799249
000050 c0 01 86 3e ec 5e 88 be 6f 98 82 be e2 52 88 3e
       0.2617321 -0.2663492 -0.25506923 0.26625735
000060 65 a0 84 3e 99 3b 54 3e 17 23 8e be c3 4f 91 3e
       0.2590362 0.2072586 -0.27761146 0.28381166
000070 2a 78 86 be 0f 66 83 be 65 dc 83 3e 11 82 71 be
       -0.26263553 -0.25663802 0.25754085 -0.23584773

network_body.linear_encoder.seq_layers.0.weight f4 [32, 1]
000000 48 0b 3f bf cd c4 45 bf a3 13 b9 3c f3 92 0f bf
       -0.7462659 -0.7725342 0.022592371 -0.560836
000010 ad 2a d3 bf f8 b0 d8 3f a4 5d 95 3f 64 82 dc bf
       -1.6497399 1.6929007 1.1669202 -1.7227292
000020 be a6 0a 3f c1 09 b7 3f 57 3b e2 be 7d 57 a3 3f
       0.5416068 1.4299852 -0.44185898 1.2761074
000030 05 71 ba bd a5 3d 47 3f d0 53 a2 bf c9 19 d9 be
       -0.09103588 0.7782844 -1.2681828 -0.42402485
000040 d9 38 b0 3f 01 17 d8 be 44 db 08 bf 1b d7 37 bf
       1.3767349 -0.4220505 -0.5345957 -0.718126
000050 68 80 9f 3e b9 6d 5f bf a0 db 28 3f b1 95 14 40
       0.31152654 -0.872768 0.6596012 2.3216364
000060 b2 a1 b7 3e bb 76 12 3f 3d 2f c4 bd b9 e8 d5 3e
       0.3586555 0.5721242 -0.095793225 0.41779116
000070 90 ef 98 bf 13 a0 f7 bf 6f 5d f2 3d 90 73 0b 40
       -1.1948109 -1.9345726 0.11834227 2.1789284

network_body.linear_encoder.seq_layers.2.bias f4 [32]
000000 b1 c1 25 be 8f b3 7e 3e 0a 58 14 be d1 34 4a be
       -0.16187169 0.24873184 -0.14486709 -0.1974671
000010 a6 b1 75 3e 32 08 5c 3e 5f 46 83 3e 51 03 67 3e
       0.23993549 0.21487501 0.25639626 0.22559859
000020 aa 3d 40 be ac 54 26 be 4f 28 44 be 49 00 44 be
       -0.18773523 -0.16243237 -0.19156002 -0.19140734
000030 52 8b 41 be 5b 49 42 be a9 18 07 be 0b ce 21 be
       -0.18900803 -0.18973295 -0.13193001 -0.15801255
000040 7d 1c 27 3e 07 27 66 3e 98 54 6e 3e 03 2e 7d 3e
       0.16319461 0.22475825 0.23274457 0.24724583
000050 57 d5 49 3e e3 86 47 be 7c fc ec bd fa 16 45 be
       0.19710289 -0.19485049 -0.11571595 -0.19247046
000060 08 59 5d 3e dd 6c 26 be 67 0f 2b 3e c4 ff 49 be
       0.21615994 -0.16252466 0.16705094 -0.19726473
000070 af b8 48 3e 48 ba 30 3e e6 fd 4b be 24 ba 2e be
       0.19601701 0.1725856 -0.19921073 -0.17063195

network_body.linear_encoder.seq_layers.2.weight f4 [32, 32]
000000 23 fd 6f be e8 97 01 3f d9 1e 0b be cf 5d b9 be
       -0.23436408 0.50622416 -0.13585986 -0.36204383
000010 d6 7e 27 3e a5 99 df be b0 ee 06 bf cf 24 96 3e
       0.16356978 -0.4367191 -0.5270796 0.29324958
000020 31 f3 dd 3e a2 be 63 be f8 08 94 3d 67 19 9a be
       0.43349603 -0.2224069 0.07228273 -0.30097505
000030 95 da 65 3e 38 9a 05 bf 4c 68 8e 3d a2 e0 9a 3e
       0.22446664 -0.52188444 0.06953487 0.30249506
000040 02 b0 bf be f3 af ff 3d c9 61 a2 3e de a7 52 3e
       -0.3743897 0.124847315 0.3171523 0.20571849
000050 75 84 09 bf 83 ed de 3e c9 89 1b 3e 77 f6 2a bd
       -0.5371774 0.43540582 0.1518928 -0.041738953
000060 9a 36 82 be 63 5c 2c be 1d 36 f4 3d bc 2d a4 be
       -0.25432283 -0.16832118 0.11924384 -0.32066143
000070 de 80 87 3e 14 e8 e3 3e 53 34 f4 be 0d b0 f5 bd
       0.26465505 0.44513 -0.4769617 -0.1199647
000080 2b 01 d7 3e 8b b1 36 be f9 c8 ca 3e 53 c7 5f 3e
       0.4199308 -0.17841165 0.39606455 0.2185338
000090 bf be 29 be 89 c1 da 3e a4 36 80 3e c4 35 d6 bd
       -0.1657667 0.4272578 0.25041687 -0.10459474
0000a0 ca 04 c1 bc ad a2 a9 3e 20 54 a6 be 23 a3 0b 3f
       -0.023561854 0.33131924 -0.32486057 0.545458
0000b0 14 3a 05 be cf af f1 3e 08 4b 92 be c0 94 70 be
       -0.13010436 0.47204444 -0.2857287 -0.23494244
0000c0 f3 2e a6 3d 06 4a e7 be 36 5f 50 bf 0a fd fd be
       0.081144236 -0.45173663 -0.8139528 -0.49607116
0000d0 11 a6 f3 3e 7b 4f 19 be c9 94 31 be 7b 21 f0 3e
       0.47587636 -0.14971726 -0.17341913 0.46900544
0000e0 ad bf 03 3f 3c a8 0c be 9e 3e b0 be d7 53 e7 3e
       0.5146435 -0.13736051 -0.34422773 0.45181152
0000f0 c1 74 0f bf fb 5a de be ff 31 ca 3d a4 42 ab be
       -0.5603753 -0.43428788 0.09872817 -0.3344928
000100 19 bf d5 ba e7 58 b9 3e a1 c6 1e 3e 27 a4 f9 be
       -0.0016307562 0.3620064 0.15505458 -0.4875805
000110 fd 8c b9 3e d5 a1 91 be 14 10 25 be 96 54 14 3e
       0.36240378 -0.2844378 -0.16119415 0.14485392
000120 76 95 9d 3d 54 4f 1f bd 0d e7 22 3f 14 1c 02 bf
       0.07694523 -0.038894013 0.63633806 -0.50824094
000130 ef ed 46 bd 67 23 23 bf de 35 b7 3e ff e4 12 3e
       -0.048566755 -0.63725895 0.35783285 0.14345168
000140 1b f6 2b bf ba d6 c8 3e 9f 93 db 3e c8 e7 01 3e
       -0.671724 0.39226323 0.42886063 0.12686074
000150 7b 29 92 be a1 47 c1 3e dc 3f e3 3e 44 ab b1 be
       -0.28547272 0.3774996 0.44384658 -0.34700978
000160 c4 07 dc be 4e 96 f6 be 62 66 91 3e 93 2e c5 bd
       -0.42974675 -0.48161548 0.28398424 -0.09628024
000170 af 12 d3 3d 8e 1f 48 3e be 0b 6e be 3c a9 a4 3e
       0.10306298 0.19543287 -0.23246667 0.32160366
000180 17 c5 54 be cb 9b a9 3e 2d 19 89 bd 02 62 23 bd
       -0.20778309 0.33126673 -0.06694255 -0.03988839
000190 76 d5 fb 3e 3c e9 ca be 75 eb 74 be 93 cd c1 ba
       0.49186295 -0.3963107 -0.23917945 -0.0014785997
0001a0 e1 01 2c 3e e1 89 d0 be ae 51 fe 3e 09 78 02 bd
       0.16797592 -0.40730193 0.49671692 -0.031852756
0001b0 eb b4 65 3e fd 3b ae be 7c 0b 08 3f 64 b8 9e 3e
       0.22432296 -0.34030142 0.53142524 0.31000054
0001c0 30 72 9e be ea 9d 04 3f 38 68 17 3e 65 e9 03 3f
       -0.30946493 0.5180346 0.1478585 0.51528007
0001d0 03 f2 05 bf 7c 31 89 3e f1 c1 a7 3c c4 71 55 be
       -0.52322406 0.26795566 0.02047822 -0.2084418
0001e0 3e 8f 12 bd 6b 0d 02 bf 20 5a 10 3e c5 cb 68 be
       -0.035781138 -0.50801724 0.1409688 -0.22733982
0001f0 bd 5b ff 3d ea 6e 8a 3d 75 b3 6f bc 1e 11 92 3e
       0.124686696 0.067594364 -0.014630188 0.28528684
000200 1f 2f b6 3e 98 63 95 be c6 62 8c 3e fb c1 b6 bc
       0.35582826 -0.29177547 0.27419108 -0.022309294
000210 98 c7 03 bf 1d a0 08 3f a8 37 e2 3e 78 6a 36 bd
       -0.5147643 0.53369313 0.44183087 -0.04453513
000220 da d4 0b bf cd 25 b6 3e 9f 6b a2 3d f4 2d b8 3e
       -0.5462166 0.35575715 0.07930683 0.3597256
000230 8d 16 d4 be a7 fc c3 3e 50 1a d6 be e2 a1 45 3e
       -0.41423455 0.38278696 -0.4181695 0.19300035
000240 ac 5e b8 3e e2 c8 98 bd ac 89 43 be f0 20 f0 be
       0.3600973 -0.0746019 -0.19095486 -0.4690013
000250 4a 6c dc 3e a9 23 17 3d 01 04 06 be a9 72 cf 3e
       0.43051368 0.036899243 -0.13087465 0.40517166
000260 cd 15 9e 3e 4c 60 e4 3e 87 d9 fb be 74 3a ac 3e
       0.30876008 0.4460472 -0.49189398 0.33638346
000270 75 24 99 3c ff 8d 76 be 0c 05 9d 3e 2d 87 03 bf
       0.018694142 -0.24077605 0.30667913 -0.51378137
000280 b7 c0 0b 3f c7 8b ab be 82 9f cd 3e 15 b7 4c 3e
       0.54590935 -0.3350508 0.40160757 0.19991715
000290 32 a8 96 be 33 58 36 3c 53 eb 74 3e 34 b9 65 bd
       -0.29425198 0.011129427 0.23917894 -0.056084827
0002a0 6b c4 26 be 8e 9c 23 be 54 b1 64 be a6 6c 50 3e
       -0.16285865 -0.1597769 -0.2233327 0.20353946
0002b0 f2 c4 48 be 66 7e dc 3d a2 f4 8f be fe 5f 15 bf
       -0.19606379 0.10766296 -0.28116328 -0.583496
0002c0 5d d4 11 3e d1 94 a3 be 32 da ab be b1 70 d7 bd
       0.14241166 -0.31949475 -0.33564907 -0.10519541
0002d0 cc 47 90 3e 2f d1 a8 be 60 0f 36 be 4d 3f e0 bc
       0.28179777 -0.32972094 -0.17779303 -0.027373934
0002e0 5c 9b 66 3d f7 3a f3 3d 33 45 2c be 0c a5 74 3e
       0.056300506 0.11876481 -0.16823272 0.23891085
0002f0 34 db 70 3e 30 49 e7 be c9 ad 8e 3e e6 11 74 bc
       0.2352112 -0.45173025 0.27866963 -0.014896845
000300 c2 3b cb 3e d9 75 0b 3e 99 59 d5 3e 31 50 45 3e
       0.3969403 0.13619174 0.4166992 0.19268872
000310 e5 11 22 bd b8 27 fd 3e d7 e4 a2 3e 83 7e af be
       -0.039567847 0.49444366 0.31815216 -0.34276208
000320 8a fc a4 be 96 b1 a3 3e 86 36 af be 3a 3f 8d 3e
       -0.32223922 0.31971425 -0.34221286 0.275873
000330 0b 17 f4 3a 0e e8 a8 3e fa f2 0e be 9d 2c 93 be
       0.001862259 0.32989544 -0.13959876 -0.28744975
000340 8d 42 94 3e cb 9c 19 be e5 46 15 bf c1 8e 03 bf
       0.28957024 -0.15001218 -0.583113 -0.513897
000350 5d ed 97 3e 75 4c 1d bf 50 69 62 be 99 2c cd bd
       0.2967328 -0.6144479 -0.22110486 -0.10018272
000360 60 f7 12 3f 14 13 15 3f b3 89 5b 3e 9e 2c b9 3e
       0.57408714 0.58232236 0.21439247 0.36166853
000370 75 f7 60 be 8c 84 93 be da 87 db 3e 75 81 dc bc
       -0.21969397 -0.28812063 0.42877084 -0.026917199
000380 bb 85 1a 3f 4e 2a 3e bf c2 1c f4 3e ba f1 a9 3e
       0.60360307 -0.742833 0.4767819 0.33192235
000390 b4 c8 e1 be 3d 2c 96 3e 56 e8 75 3c 61 1f 5e be
       -0.44098437 0.29330626 0.0150090065 -0.21691658
0003a0 0f aa a9 be 9f 6c 58 3e a4 a5 08 be a4 98 54 3d
       -0.33137557 0.21135186 -0.13344437 0.051903382
0003b0 81 08 c2 be 60 15 0b 3f 19 13 95 bd 31 f1 73 be
       -0.37897113 0.5432949 -0.07279033 -0.23822476
0003c0 0b 5d 17 3f 60 60 4e bd 8f f3 e4 be 89 ea 92 bd
       0.5912635 -0.05038488 -0.4471707 -0.0717364
0003d0 83 a4 9b 3e e0 5b 9a be db 53 06 bf 2f f5 48 3f
       0.3039895 -0.3014822 -0.52471703 0.7849912
0003e0 b0 e2 a4 3e c3 d0 73 3e 0e 6d 1b be 87 3d 26 3c
       0.322042 0.23810105 -0.1517832 0.010146505
0003f0 a8 7b 6b be a0 fc 5d be a5 fe 05 3f 7d 00 87 3b
       -0.2299639 -0.216784 0.5234168 0.0041199313
